results/vae/comedi/cmg_s_suboptimal/8/vae_policy.pt (torch, 242850 bytes, 14 tensors)

encoder.fc1.weight f4 [128, 128]
0	0xbedd346e	-0.43204063
1	0xbed9ea41	-0.42561534
2	0xbf0585b3	-0.52157134
3	0xbed5b224	-0.41737473
4	0xbf04f19f	-0.51931185
5	0xbef6f13a	-0.48230916
6	0xbf0a23c9	-0.53960854
7	0xbee4a1c5	-0.4465467
8	0x3eff6e00	0.4988861
9	0x3eb67aa4	0.35640442
10	0x3efed925	0.49775043
11	0x3ee0481d	0.43805018
12	0x3ef92f0d	0.4866871
13	0x3eddd930	0.43329763
14	0x3eed6a20	0.4637003
15	0x3ed160b2	0.40894085
16	0xbebfcf31	-0.37462762
17	0xbeda1639	-0.4259508
18	0xbef91f4c	-0.4865669
19	0xbed8420a	-0.42237884
20	0xbef8453b	-0.4849032
21	0xbee70940	-0.45124245
22	0xbef44145	-0.47706047
23	0xbec61599	-0.38688353
24	0xbecc8d1b	-0.39951405
25	0xbebce376	-0.3689229
26	0xbeb37c0a	-0.35055572
27	0xbec572d2	-0.38564163
28	0xbea59ca0	-0.32346058
29	0xbed7496d	-0.42048207
30	0xbe80648d	-0.25076714
31	0xbece1fdd	-0.40258685
32	0xbdbd4e36	-0.09243433
33	0xbe155914	-0.14584762
34	0xbe4156f9	-0.18880834
35	0xbdd847f5	-0.105606
36	0xbe164d85	-0.14678009
37	0xbdb4132a	-0.08792718
38	0xbe1bb026	-0.15203914
39	0xbe409021	-0.18804981
40	0xbe547566	-0.20747909
41	0xbe836d95	-0.25669542
42	0xbe464102	-0.19360736
43	0xbe1d8a82	-0.15384868
44	0xbe396f34	-0.18108827
45	0xbe8ab7b8	-0.2709329
46	0xbe3d84ee	-0.1850774
47	0xbe5ed127	-0.21759473
48	0xbe82df0c	-0.25560796
49	0xbeb6be52	-0.35692078
50	0xbec8c48f	-0.39212462
51	0xbeaca509	-0.33719662
52	0xbebd0311	-0.36916402
53	0xbe6ac290	-0.22925782
54	0xbe8f9420	-0.28042698
55	0xbe882f20	-0.26598454
56	0xbe7307ea	-0.23733488
57	0xbe89bc75	-0.26901594
58	0xbe4bb236	-0.19892201
59	0xbeabf7b5	-0.33587423
60	0xbe82ef3f	-0.25573155
61	0xbea498b2	-0.32147747
62	0xbe753550	-0.23946118
63	0xbe978b3c	-0.29598415
64	0xbd565668	-0.052328497
65	0xbdc79e95	-0.09747044
66	0xbbc1b12b	-0.0059110126
67	0xbe073ab8	-0.13205993
68	0xbe06fd91	-0.13182665
69	0xbe07fa89	-0.13279165
70	0x3a1108aa	0.0005532602
71	0xbd4a51ce	-0.04939442
72	0x3d90caf1	0.07069958
73	0xbdb33b26	-0.08751516
74	0xbdd083dd	-0.10181401
75	0xbdaa7ad6	-0.0832421
76	0xbd977472	-0.07395257
77	0x3cb16b4c	0.021657608
78	0x3c8b642e	0.017015543
79	0x3d7129f6	0.058877908
80	0xbe5040c0	-0.203372
81	0xbe5dad7d	-0.21648212
82	0xbdde2b22	-0.10848071
83	0xbe437940	-0.19089222
84	0xbdd2233a	-0.10260625
85	0xbe34b5ac	-0.17647427
86	0xbddbf590	-0.10740197
87	0xbe6707ad	-0.22561522
88	0xbe2f0ba0	-0.17094278
89	0xbdc9dc9d	-0.09856532
90	0xbddbde2d	-0.10735736
91	0xbe188264	-0.1489349
92	0xbd9a3832	-0.0753025
93	0xbd85bc90	-0.06530106
94	0xbe46f4e9	-0.19429363
95	0xbe2ec098	-0.17065656
96	0xbdeeed9e	-0.11666416
97	0xbe6af632	-0.22945479
98	0xbe6c0dbd	-0.23052116
99	0xbe91a24d	-0.28444138
100	0xbe7f8b18	-0.24955404
101	0xbe356fd7	-0.17718445
102	0xbe58ecba	-0.21184054
103	0xbe8672ad	-0.26259366
104	0x3c093b59	0.008375966
105	0xbd5faaa1	-0.054606084
106	0xbd8b87a7	-0.06812983
107	0xbd2dfff6	-0.04248043
108	0xbd927664	-0.071514875
109	0xbd4b9559	-0.049702976
110	0x3dc1bf32	0.09460296
111	0x3caa1182	0.020760302
112	0xbd9e03d1	-0.07715572
113	0xbe3de471	-0.18544175
114	0xbe23b199	-0.15985717
115	0xbe048afd	-0.12943645
116	0xbdb8bcb1	-0.09020365
117	0xbe36d6f8	-0.17855442
118	0xbe0f798e	-0.14011213
119	0xbe208486	-0.15675554
120	0xbdaf2a12	-0.08552946
121	0xbdf3d4bf	-0.119058125
122	0xbdb97412	-0.09055342
123	0xbe131874	-0.14364797
124	0xbe166bfe	-0.14689633
125	0xbe0bfaf3	-0.13669948
126	0xbdec513b	-0.11538931
127	0xbe1e3412	-0.15449551
128	0xbc9e5d96	-0.019331735
129	0xbde357f9	-0.11100764
130	0xbc8e67b0	-0.017383426
131	0xbd870aeb	-0.06593879
132	0xbe2c5dc7	-0.16832648
133	0xbd045962	-0.032311805
134	0xbdf15475	-0.11783687
135	0xbe026368	-0.12733233
136	0xbe1995c8	-0.14998543
137	0xbe2870d5	-0.16449292
138	0xbd5231c8	-0.051317006
139	0xbdc48b9b	-0.0959694
140	0xbd2d09fe	-0.042245857
141	0xbe18c51d	-0.14918943
142	0xbc343b60	-0.011000484
143	0xbe10f15c	-0.14154571
144	0xbdd67f0b	-0.1047345
145	0xbd916e93	-0.071011685
146	0xbd33954f	-0.043843564
147	0xbc94750d	-0.01812222
148	0xbc12bf71	-0.008956776
149	0xbe23637c	-0.15955919
150	0xbd89abe1	-0.067222364
151	0xbe028db6	-0.12749371
152	0xbd8ace4d	-0.0677763
153	0xbdfe4919	-0.12416286
154	0x3cb7c575	0.022433022
155	0xbdfbcb0c	-0.122945875
156	0xbc32a9fd	-0.010904786
157	0xbcdd810e	-0.027039077
158	0xbcf042ed	-0.029328788
159	0xbdd905f7	-0.10596841
160	0xbae6d707	-0.001761169
161	0xbd8052b7	-0.062657766
162	0xbd90a755	-0.07063166
163	0xbe23bbd3	-0.15989618
164	0xbd380b9a	-0.04493294
165	0xbdc2f4d2	-0.09519352
166	0xbdfb230f	-0.12262546
167	0xbbc75d7e	-0.006084143
168	0xbd31fbfc	-0.0434532
169	0xbde57923	-0.112047456
170	0xbddcfb24	-0.10790089
171	0xbd89fa93	-0.06737246
172	0xbc61daec	-0.013785105
173	0xbdaf7b64	-0.08568457
174	0xbde89b1f	-0.11357712
175	0xbdbf52d4	-0.0934197
176	0xbe18682c	-0.14883488
177	0xbd520322	-0.05127252
178	0xbc6af4c5	-0.014340584
179	0xbe29f727	-0.16598187
180	0xbd7f1001	-0.062271122
181	0xbd17fe7b	-0.037107926
182	0xbd88b7f9	-0.06675715
183	0xbde9ff5c	-0.11425659
184	0xbcd1e643	-0.025622493
185	0xbccf8b2d	-0.025334919
186	0xbd1eb25c	-0.038744316
187	0xbdb2d4cd	-0.08731995
188	0xbdc30eb4	-0.09524289
189	0xbd7f1fc1	-0.062286142
190	0xbdb2ef61	-0.08737064
191	0xbdc8ef0f	-0.09811222
192	0xbd1ad951	-0.037804905
193	0xbc9649f6	-0.018345814
194	0xbdd30ee3	-0.10305574
195	0xbde9b48f	-0.11411392
196	0xbdbe7424	-0.09299496
197	0xbdcbfb60	-0.09960055
198	0xbd9599e7	-0.07304745
199	0xbd8e6a73	-0.06953897
200	0xbe11b291	-0.14228274
201	0xbdc1af6d	-0.09457288
202	0x3c491387	0.012272722
203	0xbce4ce8f	-0.027930526
204	0xbd88381b	-0.06651326
205	0xbdec372f	-0.11533963
206	0xbdedd3a3	-0.11612632
207	0xbe1093cb	-0.14118879
208	0xbde701d6	-0.11279647
209	0xbd5da1a1	-0.05410922
210	0xbce2bd27	-0.027678085
211	0xbd30df9a	-0.043181993
212	0xbe26045d	-0.16212602
213	0xbe0c83df	-0.1372218
214	0xbdc86ee8	-0.09786779
215	0x3acc0b79	0.0015567384
216	0xbd442d30	-0.047894657
217	0xbdac643d	-0.084175564
218	0xbcc9c7b3	-0.024631357
219	0xbdc274ca	-0.09494932
220	0xbdf1eb9b	-0.11812516
221	0x3b64a598	0.003488874
222	0xbdcecee5	-0.10098056
223	0xbda11aff	-0.07866477
224	0xbe2ff919	-0.17184867
225	0xbcca7266	-0.024712753
226	0xbc8a6768	-0.016895011
227	0xbd538ea9	-0.051649723
228	0xbe15048c	-0.14552516
229	0xbe2f3c4f	-0.1711285
230	0xbe1f67e7	-0.1556698
231	0xbc92f088	-0.01793696
232	0xbd26b88f	-0.040703353
233	0xbc0f8cff	-0.008761643
234	0xbd16e0d7	-0.036835518
235	0xbd78e752	-0.06076748
236	0xbdabf66d	-0.08396611
237	0xbe1a05f5	-0.15041335
238	0xbe22ac5c	-0.15886062
239	0xbe29c7c0	-0.16580105
240	0xbd367106	-0.04454138
241	0xbdfe2c4e	-0.12410794
242	0xbdc9b6d1	-0.098493226
243	0xbe06b74d	-0.13155861
244	0xbdc65783	-0.0968466
245	0xbe1254b5	-0.14290126
246	0xbe0dc9a9	-0.13846458
247	0xbd5295a2	-0.051412232
248	0xbdd78307	-0.10523038
249	0xbcc80cd9	-0.024420189
250	0xbddbc4ae	-0.10730873
251	0xbe1337de	-0.1437678
252	0xbdc1a17b	-0.09454628
253	0xbdf9664e	-0.12177716
254	0xbdd9201c	-0.106018275
255	0xbe27037b	-0.16309921

encoder.fc1.bias f4 [128]
0	0xbb909d0c	-0.0044132527
1	0xbd1a707a	-0.037704922
2	0xbd9dbaff	-0.07701682
3	0xbd9c68d8	-0.07637185
4	0xbdfc5bb3	-0.12322178
5	0xbd0da0b7	-0.034577098
6	0xbd9b3e80	-0.0758028
7	0xbd971b94	-0.07378307
8	0xbe1959b0	-0.1497562
9	0xbd92c0df	-0.071656935
10	0xbd84ce3f	-0.06484651
11	0xbbaa96aa	-0.005205949
12	0xbd72c839	-0.05927298
13	0xbd79b194	-0.060960367
14	0x3e0d9f58	0.13830316
15	0xbd45ea5d	-0.04831921
16	0xbda8d388	-0.082434714
17	0xbe35fbf9	-0.17771901
18	0xbd13e4f3	-0.036107015
19	0xbe43079d	-0.19045873
20	0xbdf2821b	-0.11841222
21	0xbdaf24c4	-0.08551934
22	0xbd3bf68b	-0.04588942
23	0xbd0a381e	-0.033744924
24	0xbdb3f155	-0.08786265
25	0xbdebd9e8	-0.11516172
26	0xbd0f2112	-0.034943648
27	0xbd9842c8	-0.074346125
28	0xbdfc9e5e	-0.12334894
29	0xbde84698	-0.1134159
30	0xbd9659f5	-0.07341377
31	0xbdc3db77	-0.09563344
32	0xbd63774b	-0.05553369
33	0xbd2e559f	-0.042562123
34	0xbcc8f8e4	-0.024532743
35	0xbd94bc16	-0.07262437
36	0xbdf9ece6	-0.12203388
37	0xbd850d4d	-0.064966775
38	0xbdba416a	-0.09094508
39	0xbde87a3b	-0.113514386
40	0xbda145a5	-0.07874612
41	0xbdc69b37	-0.09697574
42	0x3dff3281	0.12460805
43	0xbddbe20e	-0.10736476
44	0xbd819195	-0.06326596
45	0x3db7bf48	0.08972031
46	0xbc12ac27	-0.008952177
47	0xbd7050d7	-0.058670845
48	0xbd966998	-0.07344359
49	0xbdc5da4d	-0.09660778
50	0xbd493326	-0.049121045
51	0xbdc6b00b	-0.09701546
52	0xbdfc62d5	-0.12323538
53	0xbdb121f1	-0.08649052
54	0x3d99ecea	0.07515891
55	0xbd68333d	-0.05668949
56	0xbda40958	-0.08009595
57	0xbd27b70e	-0.04094606
58	0xbcc3130d	-0.023812795
59	0xbcbccaf1	-0.023045989
60	0xbcad6883	-0.021168
61	0xbc88e6de	-0.016711649
62	0xbe3059a0	-0.17221689
63	0xbda4b974	-0.08043185
64	0x3d181477	0.03712889
65	0xbd99fc01	-0.07518769
66	0xbd835444	-0.06412557
67	0xbd984526	-0.07435064
68	0xbda56f94	-0.080779225
69	0xbd7a86b6	-0.061163627
70	0xbe50649a	-0.20350876
71	0xbe27032a	-0.163098
72	0xbd77ea87	-0.060526397
73	0xbe114576	-0.14186653
74	0x3e822aea	0.25423366
75	0xbd7b25d4	-0.061315373
76	0xbd761eb2	-0.060087867
77	0xbd5a31a5	-0.05327
78	0x3d5030c8	0.05082777
79	0xbdb28927	-0.08717566
80	0xbdae4c9a	-0.08510704
81	0xbdb20ab6	-0.08693449
82	0xbd7e1726	-0.062033795
83	0xbda6f70a	-0.08152588
84	0xbe002b6e	-0.12516567
85	0xbdb17eb5	-0.086667456
86	0xbddabbf8	-0.106803834
87	0xbdb52e54	-0.08846727
88	0xbd825e5b	-0.06365653
89	0xbd97898a	-0.0739928
90	0xbd94386c	-0.07237324
91	0xbda338b9	-0.07969803
92	0xbda16ed7	-0.07882469
93	0x3d4bd4a6	0.049763344
94	0xbd97e0e1	-0.07415939
95	0xba907e32	-0.0011023937
96	0xbdaece54	-0.08535448
97	0xbd0bb5c3	-0.03410889
98	0xbd9f3548	-0.077738345
99	0xbd9fa5c3	-0.077952884
100	0xbd32a495	-0.04361399
101	0xbda5704c	-0.080780596
102	0x3db0f6b8	0.08640808
103	0xbda859d2	-0.08220257
104	0xbd3fb0a0	-0.046799302
105	0xbd61d0a7	-0.055130627
106	0xbdaa1c26	-0.0830615
107	0xbd830f7f	-0.0639944
108	0xbdb83a19	-0.08995456
109	0xbdf8120c	-0.12112817
110	0xbdd059d7	-0.101733856
111	0xbdb6812a	-0.08911355
112	0xbd5c942e	-0.053852253
113	0xbda92872	-0.082596675
114	0xbd3e2341	-0.04642034
115	0xbd91e5c1	-0.071239
116	0xbd12418d	-0.035707045
117	0xbd914493	-0.070931576
118	0xbe35ab91	-0.17741229
119	0xbda0c74f	-0.07850515
120	0xbdcfcd44	-0.10146573
121	0xbdc8c865	-0.09803847
122	0xbc6295f5	-0.013829698
123	0xbd1c0813	-0.038093638
124	0xbd6df94a	-0.05809907
125	0xbd2a4307	-0.04156783
126	0xbd88942c	-0.066688865
127	0xbdb8d6c4	-0.09025338

encoder.fc2.weight f4 [128, 128]
0	0xbbcd44ba	-0.0062642964
1	0xbd3545d4	-0.044256046
2	0xbd810c85	-0.06301216
3	0xbd1a6e46	-0.03770282
4	0xbdfbeae6	-0.12300663
5	0x3d897480	0.06711674
6	0xbd8050a7	-0.06265383
7	0x3d5cdab6	0.053919517
8	0x3d95b2aa	0.07309468
9	0xbc850ed0	-0.016242415
10	0x3da86d6a	0.08223994
11	0x3d82ce12	0.06386961
12	0xbded003c	-0.1157231
13	0x3d4eae18	0.050458997
14	0xbd003aa1	-0.031305913
15	0x3c7bdb76	0.015372148
16	0xbdf7b326	-0.12094717
17	0x3c700ea7	0.014651931
18	0x3c4d7dd4	0.012542207
19	0x3d30fa8d	0.043207694
20	0xbd48fce9	-0.04906932
21	0x3d6e6737	0.058203902
22	0xbbd047d4	-0.006356219
23	0x3d954604	0.07288745
24	0x3bf73d0a	0.007545118
25	0x3d60bcc5	0.054867525
26	0xbd64c777	-0.055854287
27	0xbda06d8a	-0.07833393
28	0xbcbf3e46	-0.023345124
29	0xbbf0778b	-0.0073384694
30	0x3cc867b6	0.024463516
31	0x3ce37c1f	0.027769146
32	0x3d6e7821	0.058220033
33	0xbd3a46f9	-0.04547784
34	0x3d41c72d	0.04730909
35	0x3d2d8df3	0.0423717
36	0xbdbabbe8	-0.091178715
37	0xbd575d6f	-0.05257934
38	0xbdb3c45f	-0.08777689
39	0x3d851eb5	0.064999975
40	0xbab29ba5	-0.0013626708
41	0x3ca59132	0.020210836
42	0xbdeeea01	-0.116657265
43	0xbdf6f755	-0.120588936
44	0x3d948cf4	0.07253447
45	0x3d7f13ad	0.062274624
46	0xbbd0864a	-0.0063636648
47	0x3d90c187	0.070681624
48	0x3d91c5ce	0.071178064
49	0x3d55da95	0.05221041
50	0x3d82c110	0.0638448
51	0xbc3a08ca	-0.011354635
52	0x3cbc96c1	0.023021104
53	0xbd9b95d0	-0.07596934
54	0xbd01c42a	-0.031681217
55	0xbc074cb2	-0.008258032
56	0xbb8d34a0	-0.004309252
57	0x3db2887a	0.08717437
58	0x3c930fea	0.017951924
59	0x3ce40229	0.027833061
60	0x3da8cb00	0.08241844
61	0xbdc6cf94	-0.09707561
62	0x3c8cc7aa	0.017185051
63	0xbd8f976d	-0.07011304
64	0xbd99fbb9	-0.075187154
65	0x3d4190c0	0.047257185
66	0x3ce87bb8	0.028379306
67	0xbb9be357	-0.0047573256
68	0xbd6a40eb	-0.057190817
69	0x3d827ea8	0.06371814
70	0xbbde30ff	-0.006780743
71	0x3d7729b7	0.060342517
72	0xbd7a2295	-0.061068136
73	0x3d8b1d35	0.0679268
74	0xbb88cd3b	-0.004174856
75	0xbce24564	-0.027620979
76	0xbd7bb2c8	-0.061449796
77	0xbd8b9d72	-0.0681714
78	0xbc8464cc	-0.016161345
79	0x3ba9b405	0.0051789307
80	0xbd8605b1	-0.06544054
81	0x3d438263	0.04773177
82	0x3dab007d	0.083497025
83	0x3d3aa808	0.045570403
84	0xbd31d7c4	-0.04341866
85	0xbd60fc22	-0.054927953
86	0xbd8f757e	-0.07004832
87	0xbd5f3092	-0.05448968
88	0x3d581a55	0.052759487
89	0x3d26dc11	0.040737215
90	0xbd0767b3	-0.03305788
91	0x3abdc401	0.0014477969
92	0xbc641bc0	-0.013922632
93	0x3aa75920	0.001276765
94	0xbdb4034f	-0.087896936
95	0x3ca81822	0.02051932
96	0xbcfe1efe	-0.031020638
97	0xbd9bef01	-0.07613946
98	0xbad19908	-0.0015991041
99	0x3cd86e86	0.02641989
100	0x3d25ce9d	0.040480245
101	0xbdca5eb6	-0.09881346
102	0xbd781e71	-0.060575906
103	0xbd879824	-0.066208154
104	0xbd887672	-0.06663217
105	0xbd6f04ef	-0.058354314
106	0xbd63648b	-0.055515807
107	0x3d63597e	0.05550527
108	0xbda34864	-0.07972792
109	0xbd93e7df	-0.0722196
110	0xbd161a1e	-0.036646
111	0x3d6e1a4b	0.058130544
112	0xbbbb287e	-0.005711614
113	0xbd473c65	-0.04864158
114	0x3d92fe32	0.0717739
115	0xbd894299	-0.067021556
116	0xbd0915c9	-0.03346804
117	0xbda52b99	-0.08064956
118	0xbd65780f	-0.0560227
119	0xbceda54e	-0.029009487
120	0x3cbce399	0.023057746
121	0xbd833e66	-0.06408386
122	0xbd71a21f	-0.0589925
123	0x3db4e627	0.088329606
124	0x3c7ed1ea	0.015552977
125	0xbd75575e	-0.059897773
126	0x3d1c1bd7	0.038112488
127	0x3dae5d1b	0.08513852
128	0xbe41561d	-0.18880506
129	0xbdccfa4a	-0.10008676
130	0xbd418dd5	-0.047254402
131	0xbd023a6a	-0.03179399
132	0xbe07c088	-0.13257039
133	0xbdf9c66c	-0.12196049
134	0x3da4a73d	0.08039711
135	0xbe49aa66	-0.19693908
136	0xbe8b8b2f	-0.27254626
137	0x3db413c2	0.08792831
138	0xbd200e84	-0.039076343
139	0xbdb7137e	-0.08939265
140	0xbe8a8a6c	-0.27058733
141	0xbd17d294	-0.037066057
142	0xbe3f441b	-0.18678324
143	0xbe8fd712	-0.28093773
144	0xbe655f8a	-0.22399727
145	0xbdf3e48f	-0.119088285
146	0x3d9cd4ac	0.076577514
147	0x3e4db216	0.20087466
148	0xbe2c183e	-0.16806123
149	0xbdb078eb	-0.08616813
150	0x3d9317d0	0.07182276
151	0xbdae33c7	-0.085059695
152	0x3c7d0936	0.015444091
153	0xbd7dd3ba	-0.061969496
154	0x3bf3e697	0.00744326
155	0x3e0db9ad	0.13840361
156	0xbe8514a3	-0.25992307
157	0xbd8ecf31	-0.069731124
158	0xbe749b4d	-0.23887368
159	0x3b62f38e	0.0034630033
160	0x3d8c324e	0.06845532
161	0xbe339915	-0.17538865
162	0x3b026c85	0.0019901108
163	0x3b4b638b	0.0031034674
164	0xbd9200ae	-0.07129036
165	0x3cc741b6	0.024323326
166	0x3ce61989	0.028088348
167	0xbc8f58e0	-0.017498434
168	0xbcff0911	-0.031132253
169	0xbdccb8c9	-0.099961825
170	0xbd98a1c3	-0.074527286
171	0x3cd0a39c	0.02546864
172	0xbdaacb73	-0.08339586
173	0xbe09d395	-0.13459618
174	0xbdd83883	-0.10557654
175	0xbd670403	-0.05640031
176	0x3d6c7473	0.057728242
177	0xbdd85f61	-0.10565067
178	0x3d3f7ea1	0.046751622
179	0xbe2dcd60	-0.16972876
180	0x3e7ef972	0.24899843
181	0xbd5e9406	-0.054340385
182	0xbd3cb96b	-0.046075266
183	0xbe61118c	-0.2197935
184	0x3d44f725	0.048087258
185	0xbe050952	-0.12991837
186	0xbd9ed69d	-0.07755778
187	0xbcc731bc	-0.024315707
188	0xbe02a90f	-0.12759803
189	0xbe457f8e	-0.1928694
190	0xbe891c22	-0.26779276
191	0xbd567fbf	-0.052367922
192	0xbe6c1a9b	-0.23057024
193	0xbcc49d13	-0.02400068
194	0xbc9e5eb2	-0.019332264
195	0xbddffb1f	-0.109365694
196	0x3b0f5f9d	0.0021877058
197	0xbdb0037e	-0.08594416
198	0xbea21265	-0.3165466
199	0xbe04dbc0	-0.12974453
200	0xbdee0f61	-0.11624027
201	0xbde1b609	-0.110210486
202	0xbe028737	-0.12746893
203	0xbc2a62c4	-0.010399524
204	0xbe252c44	-0.16130167
205	0xbd8a0ce0	-0.06740737
206	0x3d1e1b81	0.03860045
207	0xbd93b92d	-0.07213054
208	0xbda320ac	-0.07965216
209	0x3d8b967a	0.068158105
210	0x3da1b1cf	0.078952424
211	0xbd1bfa81	-0.038080696
212	0xbc7c8dec	-0.015414696
213	0x3cd702f0	0.026246518
214	0xbe48dd4d	-0.1961567
215	0xbdc28dc6	-0.094996974
216	0x3d1bfe74	0.038084462
217	0xbccfc61f	-0.025363026
218	0xbe381166	-0.17975387
219	0x3c98c3d8	0.018648073
220	0x3b461a95	0.0030228246
221	0xbe2b5319	-0.16730918
222	0xbd555ac0	-0.0520885
223	0xbcc245fc	-0.023715012
224	0xbdc292dd	-0.09500668
225	0x3c3a18d1	0.011358456
226	0x3da4326e	0.08017431
227	0xbd93e2ed	-0.07221017
228	0xbdad78c8	-0.08470303
229	0xbd9b4d0a	-0.075830534
230	0xbceef01c	-0.029167227
231	0xbc1b09fe	-0.009462832
232	0x3c9626f7	0.018329127
233	0x3c557d58	0.013030373
234	0x3cfb584b	0.03068175
235	0x3d3e7f38	0.046508044
236	0x3cf45058	0.029823467
237	0xbed9c460	-0.42532635
238	0xbcc7be7e	-0.024382826
239	0xbd5705c7	-0.052495744
240	0xbcb2a521	-0.021807255
241	0xbdb4bd7a	-0.08825202
242	0xbd9b9186	-0.07596116
243	0x3d113050	0.035446465
244	0xbdb87c2c	-0.09008059
245	0xbc8e7203	-0.01738835
246	0xbd8c6627	-0.068554215
247	0xbdc492c2	-0.09598304
248	0xbd52b259	-0.051439617
249	0x3d0d4dd2	0.034498043
250	0x3d0c0da1	0.034192685
251	0xbd0c7913	-0.034295153
252	0xbd94d3ba	-0.07266946
253	0xbe0af39e	-0.13569495
254	0xbd351462	-0.04420889
255	0xbc97cab3	-0.018529272

encoder.fc2.bias f4 [128]
0	0xbdfd3278	-0.12363142
1	0xbe2914de	-0.16511866
2	0xbe899c54	-0.2687708
3	0x3dbfa941	0.093584545
4	0xbe01307e	-0.12616155
5	0xbdad7cb8	-0.08471054
6	0xbd9a91c7	-0.07547336
7	0xbd870e65	-0.065945424
8	0xbd58cd4a	-0.052930154
9	0xbd3624fe	-0.044468872
10	0xbd885646	-0.0665708
11	0xbd44e128	-0.04806629
12	0xbe8a9a4f	-0.27070853
13	0xbdf92b17	-0.12166422
14	0xbe891b7d	-0.26778784
15	0xbdbcd1d5	-0.0921971
16	0x3cdfb258	0.02730672
17	0xbc49e4be	-0.012322603
18	0xbca9fa57	-0.020749254
19	0xbd99f4d3	-0.075174
20	0xbe95c247	-0.29249784
21	0xbd99ccd0	-0.07509768
22	0xbd4d2770	-0.05008644
23	0xbd8b673f	-0.06806802
24	0xbd9dbd21	-0.07702089
25	0xbcc844b0	-0.024446815
26	0xbc6f4d1e	-0.0146057885
27	0x3db62f41	0.08895732
28	0xbd296a9d	-0.04136144
29	0xbd845a4d	-0.06462536
30	0x3f29ddd6	0.6635412
31	0xbdcb1efe	-0.09918021
32	0xbd6a0322	-0.057131894
33	0xbddd5fdd	-0.108093
34	0xbd8dfbb3	-0.069327734
35	0xbcdb6ad3	-0.026784336
36	0xbd2c0dfd	-0.042005528
37	0xbd459bbe	-0.04824423
38	0xbe0009a2	-0.12503675
39	0xbdbe4dbf	-0.09292173
40	0xbde0b797	-0.10972517
41	0xbe9426ba	-0.28935796
42	0xbd743f7e	-0.059630863
43	0xbb7a02ff	-0.0038148758
44	0xbceb228d	-0.028702999
45	0xbd810e1d	-0.0630152
46	0x3cd80ee7	0.026374293
47	0xbdddadc8	-0.10824162
48	0xbcfccb59	-0.030858682
49	0xbcd9ffae	-0.026611175
50	0xbd3870bf	-0.045029398
51	0xbe725baa	-0.2366778
52	0xbdec466e	-0.11536871
53	0xbe6b7675	-0.22994407
54	0xbd0bde0b	-0.034147304
55	0xbca0cb49	-0.019628184
56	0xbda53b78	-0.080679834
57	0xbda913dd	-0.08255742
58	0xbe04d1ea	-0.12970701
59	0xbe2e71bd	-0.17035575
60	0xbda28528	-0.07935554
61	0xbdbee580	-0.093211174
62	0xbd03dd61	-0.032193545
63	0xbe1f68d5	-0.15567334
64	0xbe97b8a3	-0.29633054
65	0xbd0ffdf2	-0.03515429
66	0xbdff7efc	-0.12475392
67	0xbd658ef0	-0.05604452
68	0xbd9d3383	-0.07675841
69	0xbdd30f88	-0.10305697
70	0x3e1d7bce	0.15379259
71	0xbe0469a1	-0.12930919
72	0x3ef8b0c4	0.4857236
73	0xbdd92622	-0.106029764
74	0x3c769e16	0.015052339
75	0xbcc3f6b0	-0.02392134
76	0xbdf3ce52	-0.11904587
77	0xbd9ce9c0	-0.07661772
78	0xbe595e7e	-0.21227452
79	0xbdcac2a5	-0.09900407
80	0xbd06b563	-0.032887828
81	0x3e18552f	0.14876245
82	0xbda7ef04	-0.081998855
83	0xbe1374fd	-0.14400096
84	0xbd61dbab	-0.055141132
85	0xbd9c81b1	-0.07641924
86	0xbda2f8a6	-0.07957582
87	0xbdb12672	-0.08649911
88	0xbdf870dc	-0.12130901
89	0xbd719d8f	-0.05898815
90	0xbd84e18f	-0.064883344
91	0xbd4f4cc8	-0.050610334
92	0xbd5220d5	-0.051300842
93	0xbc9678b6	-0.018368106
94	0xbd3425ae	-0.043981247
95	0xbd63a147	-0.055573728
96	0xbd4c3cbb	-0.049862605
97	0x3de65790	0.1124717
98	0x3d7f1d66	0.062283896
99	0xbcad1f70	-0.021133155
100	0xbbc366d8	-0.0059631877
101	0xbe4049a4	-0.18778092
102	0x3f13cdf6	0.57736146
103	0x3e91769d	0.28410807
104	0xbd3d3c86	-0.046200298
105	0xbd34a2fb	-0.044100743
106	0xbe73dd42	-0.23814872
107	0xbdb0d197	-0.08633726
108	0xbdfa893e	-0.12233208
109	0xbcfd7e43	-0.030943995
110	0xbd5dadab	-0.0541207
111	0xbdfec04c	-0.124390215
112	0xbe6adcf8	-0.22935855
113	0xbd8dd002	-0.0692444
114	0xbd6f6c00	-0.058452606
115	0xbcef6a7f	-0.029225586
116	0xbd08a74e	-0.03336268
117	0x3f05ff63	0.52342814
118	0xbd7013d5	-0.058612663
119	0xbc9118ef	-0.017712085
120	0xbe4742b0	-0.19459033
121	0xbd07d151	-0.033158604
122	0xbe0b2511	-0.13588358
123	0xbd860f41	-0.06545878
124	0xbdd5628b	-0.10419186
125	0xbd8d7271	-0.069065936
126	0xbdb518e7	-0.0884264
127	0x3e700b4f	0.23441814

encoder.fc_mu.weight f4 [4, 128]
0	0xbe06f822	-0.13180593
1	0xbe6c83c2	-0.23097137
2	0x3e97f8d4	0.29682028
3	0x3d04b1f4	0.03239627
4	0xbd5db58b	-0.05412821
5	0x3d358868	0.04431954
6	0xbca7f4f8	-0.020502552
7	0xbbe0b350	-0.006857313
8	0xbc68c9bd	-0.014208254
9	0x3e0a1a08	0.13486493
10	0x3aa7cefa	0.0012802773
11	0x3d489df4	0.04897876
12	0xbe9eea00	-0.31037903
13	0x3c98e782	0.018665079
14	0xbe4636f0	-0.19356894
15	0x3ee5bd26	0.4487087
16	0xbc36fd63	-0.011168811
17	0xbd50ab3c	-0.05094455
18	0x3cb8bfca	0.02255239
19	0xbccb719a	-0.024834443
20	0x3d76efee	0.06028741
21	0x3cc8b271	0.02449915
22	0x3d82021b	0.06348058
23	0xbd2b09d4	-0.04175742
24	0x3d9f7dd2	0.0778767
25	0xbd284f9e	-0.041091554
26	0x3d14ffca	0.036376752
27	0x3dbb8103	0.091554664
28	0xbc5d05b0	-0.013490126
29	0x3da3d252	0.079991
30	0xbdce6729	-0.1007827
31	0xbd0d9dff	-0.034574505
32	0x39cadc72	0.00038692687
33	0xbccc9216	-0.024972003
34	0xbc482718	-0.012216352
35	0xbb56a2e6	-0.0032750904
36	0xbda6ab5d	-0.08138154
37	0xbd107ae0	-0.035273433
38	0xbcd860bf	-0.02641332
39	0x3bface49	0.0076539856
40	0x3bc982c8	0.0061496235
41	0x3dd22c78	0.10262388
42	0xbcfb8a04	-0.03070546
43	0x3d25d0d4	0.040482357
44	0xbcd0abc9	-0.025472539
45	0x3e0dc71e	0.13845488
46	0x3c2210d2	0.009891706
47	0x3d3976c5	0.045279283
48	0xbce6bf53	-0.028167402
49	0xbcb01b84	-0.021497495
50	0x3dacde84	0.08440879
51	0x3d233a77	0.03985068
52	0xbdfe2029	-0.12408478
53	0x3c16f95b	0.009214724
54	0x3c9925b9	0.018694745
55	0xbcaf5d0e	-0.021406677
56	0x3d25be2c	0.040464565
57	0x3c6f4f8e	0.01460637
58	0x3cd5853d	0.02606451
59	0xbd49ff89	-0.049315963
60	0xbdef1a2a	-0.11674912
61	0xbdbcb1de	-0.09213613
62	0x3be100d4	0.006866554
63	0x3d8261e5	0.06366328
64	0x3de0c8f4	0.10975829
65	0x3c9d7ac7	0.019223584
66	0xbc1cde39	-0.009574466
67	0x3de1bfb5	0.11022893
68	0x3d980399	0.07422561
69	0xbe05e9d8	-0.13077486
70	0x3c91441b	0.01773267
71	0xbdffb999	-0.12486572
72	0xbb0b59b3	-0.0021263182
73	0xbccf2c72	-0.025289748
74	0xbd00f5ac	-0.03148429
75	0x3d06e4d1	0.03293306
76	0x3dab21db	0.08356067
77	0x3bea1805	0.0071439766
78	0xbf32adc4	-0.69796395
79	0x3c4c5a30	0.012472674
80	0x3c59bef9	0.01329016
81	0xb9bc2df8	-0.00035892404
82	0xbcbee037	-0.023300273
83	0xbc537ec1	-0.012908638
84	0xbcf6b092	-0.030113492
85	0x3d461bf9	0.04836652
86	0xbdf50eca	-0.119657114
87	0xbc300180	-0.010742545
88	0x3d9efd63	0.077631734
89	0x3ca614e5	0.020273635
90	0x3d0bec18	0.034160703
91	0xbc54d459	-0.012990081
92	0xbcdbef95	-0.02684764
93	0x3d82fd16	0.063959286
94	0x3c91fd99	0.01782112
95	0xbda436d6	-0.080182716
96	0xbc8c0276	-0.017091017
97	0x3d2deb39	0.042460654
98	0x3d9b478e	0.07582007
99	0x3d1f5e5d	0.03890835
100	0x3bb6d412	0.00557948
101	0x3daa42fb	0.08313557
102	0xbcf7d425	-0.030252526
103	0x3d541fca	0.05178813
104	0xbd33d91d	-0.043908227
105	0xbb7cad26	-0.0038555353
106	0x3d96de4f	0.07366621
107	0x3d99b0c1	0.07504416
108	0xbda5ad00	-0.08089638
109	0x3d06ee36	0.03294202
110	0x3c6b3cd7	0.014357767
111	0xba9779a8	-0.0011556642
112	0x3d988829	0.074478455
113	0xbae46d60	-0.0017427616
114	0xbd7284aa	-0.05920855
115	0xbc31e736	-0.010858348
116	0xbdb5dead	-0.08880363
117	0x3cb2e105	0.021835813
118	0x3cde28ef	0.027119128
119	0x3be9ab68	0.007131029
120	0x3e46c1ae	0.1940982
121	0xbd5eb8a7	-0.054375317
122	0xbd12fa52	-0.035883255
123	0x3da248da	0.079240516
124	0xbe097647	-0.13424025
125	0x3d60c36f	0.05487388
126	0x3d245d25	0.040127892
127	0xbcb4f29b	-0.02208834
128	0xbc48fe58	-0.0122676715
129	0xbc5ef482	-0.0136081
130	0xbf20aafc	-0.627609
131	0xbd05a5ef	-0.03262895
132	0xb9f93938	-0.00047535612
133	0xbdd4d327	-0.103918366
134	0xbdce41f6	-0.10071175
135	0x3d973cd5	0.0738465
136	0x3986e298	0.00025727297
137	0x3c932fb7	0.017967088
138	0x3cf94f58	0.030433342
139	0x3cd6d6c3	0.026225453
140	0x3c6a6522	0.0143063385
141	0x3c8184ab	0.015810331
142	0x3cc1f24f	0.023675112
143	0xbd4b565b	-0.049642902
144	0x3d4774c8	0.048695356
145	0xbc695ea1	-0.014243753
146	0x3c2599dc	0.010107484
147	0xbd959f6c	-0.07305798
148	0xbc50eae5	-0.012751316
149	0xbcf73cad	-0.0301803
150	0xbd9d965b	-0.07694694
151	0xbd8fcb79	-0.07021231
152	0xbd921734	-0.07133332
153	0xbd9034d1	-0.07041324
154	0x3c95ef82	0.018302683
155	0xbd8d5a51	-0.06901992
156	0x3d05f307	0.032702472
157	0xbd001d24	-0.03127779
158	0xbcbb9ebd	-0.02290284
159	0xbd35c31d	-0.044375528
160	0xbb9ac947	-0.004723701
161	0x3cb6fe2d	0.022337997
162	0xbc4072d7	-0.01174613
163	0xbc59df8f	-0.013297929
164	0x3d9fb93d	0.07799003
165	0xbe069a17	-0.13144718
166	0x3d48bde9	0.049009237
167	0x3d68ba72	0.056818433
168	0xbc33e0d2	-0.010978894
169	0xbdbf2f01	-0.09335137
170	0xbc214032	-0.0098419655
171	0x3c9a4ea6	0.01883633
172	0x3c74006f	0.0148926815
173	0xbd779461	-0.06044424
174	0xbd7564a3	-0.059910428
175	0xba1e57e4	-0.00060403184
176	0xbcfc8d77	-0.030829174
177	0xbc1a9eeb	-0.009437303
178	0x3ce8d442	0.028421525
179	0x3ae094aa	0.0017134149
180	0xbe12b65b	-0.14327376
181	0x3d2ca97d	0.042153824
182	0x3d02de7a	0.03195045
183	0x3d094995	0.03351744
184	0xbd9a77cd	-0.075423814
185	0xbdb4cf56	-0.08828609
186	0x3b4ab321	0.0030929523
187	0xbcaaaa27	-0.020833088
188	0xbda8814c	-0.082277864
189	0xbd8e3335	-0.06943361
190	0x3befd2b9	0.0073188213
191	0xbe3913fd	-0.18074031
192	0xbd73b994	-0.059503153
193	0xbd0d8aeb	-0.03455631
194	0x3cfa94e3	0.030588573
195	0x3d49e8eb	0.049294394
196	0x3cb2c1f0	0.021820992
197	0x3e2b51cb	0.1673042
198	0xbc8ce56a	-0.017199237
199	0x3ca7f8cb	0.020504376
200	0xbd87750a	-0.0661412
201	0x3d14bbc6	0.036311887
202	0xbe1d053f	-0.15334032
203	0xbc8aa947	-0.01692642
204	0xbeaf1471	-0.34195283
205	0xbd7d29b6	-0.061807357
206	0xba8c11e1	-0.0010686481
207	0xbc084c52	-0.008318977
208	0x3da19fd4	0.07891813
209	0xbcbfa045	-0.023391852
210	0x3c876120	0.016525805
211	0xbd9ed528	-0.077555
212	0x3dc14b39	0.09438176
213	0xbbc0052e	-0.0058599925
214	0xbd4f0140	-0.0505383
215	0x3d0854a4	0.033283845
216	0x3cac9561	0.021067323
217	0xbd4a1257	-0.049333896
218	0xbd3be010	-0.04586798
219	0xbd65f304	-0.05613996
220	0x3cc99047	0.02460493
221	0x3ce042f1	0.02737567
222	0xbb9d61ee	-0.004802934
223	0xbd6510bf	-0.055924173
224	0xbc9f4aaf	-0.019444792
225	0xbcf76a1e	-0.030201968
226	0x3c489b85	0.01224411
227	0x3a3e3458	0.00072557246
228	0x3c2c8926	0.010530746
229	0x3e343144	0.17596918
230	0xbc380d70	-0.0112336725
231	0x3cb325e4	0.021868654
232	0xbcf4a87e	-0.0298655
233	0xbcce5a7f	-0.025189636
234	0xbd5db72b	-0.05412976
235	0xbd32ec7d	-0.043682564
236	0xbdef016b	-0.11670192
237	0x3dd87ead	0.105710365
238	0xbd2c5183	-0.042069923
239	0x3cd60387	0.026124729
240	0x3dc8ed82	0.09810926
241	0xbb57289c	-0.0032830602
242	0x3bee3c31	0.007270359
243	0xbd312521	-0.0432483
244	0xbcac718f	-0.021050243
245	0xbd157300	-0.036486626
246	0x3dbbee25	0.09176282
247	0x3d7955df	0.06087291
248	0xbcf8add0	-0.030356318
249	0x3c9a632a	0.018846113
250	0x3d76afac	0.060226128
251	0x3cab7b33	0.02093277
252	0x3b7fdd51	0.0039041827
253	0xbc74f942	-0.014952006
254	0xbc24db1b	-0.010062004
255	0xbdebcd8c	-0.11513814

encoder.fc_mu.bias f4 [4]
0	0x3d38c3d5	0.045108635
1	0x3dc0779b	0.09397813
2	0xbdc78c2f	-0.09743535
3	0x3d187671	0.03722233

encoder.fc_log_var.weight f4 [4, 128]
0	0xbc7d1a44	-0.015448157
1	0x3d501742	0.05080343
2	0x3db8cae1	0.09023071
3	0x3b995ae1	0.004680023
4	0xbda4e9f9	-0.08052439
5	0xbd8daaf0	-0.06917369
6	0xbcd6a5ba	-0.026202071
7	0xbbee8d03	-0.0072799935
8	0xbd2d4659	-0.042303417
9	0x3dab8c02	0.08376314
10	0xbd3c99df	-0.04604518
11	0xbd613e7a	-0.054991223
12	0x3d603d94	0.054746225
13	0x3d623413	0.055225443
14	0x3dd25afb	0.102712594
15	0xbe987862	-0.29779345
16	0xbd75a5b0	-0.059972465
17	0xbcc41928	-0.023937777
18	0xbda7b85b	-0.0818946
19	0x3d427688	0.04747632
20	0xbd3f4c9d	-0.046703923
21	0xbdfff059	-0.124970146
22	0xbd307ccb	-0.04308776
23	0x3c843db8	0.016142711
24	0x3d701efb	0.058623295
25	0x3d38c84e	0.0451129
26	0x3cb4309c	0.021995835
27	0xbc0868fb	-0.008325811
28	0x3de3fde4	0.1113241
29	0xbd3fc39d	-0.04681741
30	0x3d576d52	0.05259449
31	0x3df43e38	0.1192593
32	0x3de234f5	0.11045257
33	0x3c62984c	0.013830256
34	0x3e010642	0.12600043
35	0xbd3ff191	-0.046861235
36	0x3d6a25d1	0.05716497
37	0xbd90f721	-0.07078386
38	0xbbf262c9	-0.00739703
39	0x3d83032c	0.06397089
40	0x3cfca105	0.030838499
41	0x3cfc43ee	0.03079411
42	0x3dc0f281	0.09421254
43	0xbd847bca	-0.064689234
44	0xbe24d5af	-0.16097139
45	0x3c99795f	0.018734632
46	0x3d91e150	0.07123053
47	0x3c182368	0.009285785
48	0xbdea2fde	-0.11434911
49	0xbdb7eae8	-0.08980352
50	0xbc338c3d	-0.010958728
51	0x3dd2314b	0.10263308
52	0x3e952a0b	0.2913364
53	0x3e843437	0.25821087
54	0x3d3409bb	0.043954592
55	0x3d713c93	0.05889566
56	0x3cf136d1	0.029445084
57	0xbc651f2b	-0.013984482
58	0x3d339980	0.04384756
59	0x3df3dae1	0.11906982
60	0xbcc0a5a4	-0.023516484
61	0xbd9f5ca1	-0.077813394
62	0xbe135edb	-0.14391653
63	0x3d262fbd	0.04057287
64	0x3ce3303a	0.027732957
65	0xbc4a6b8e	-0.012354745
66	0x3cdb4314	0.026765384
67	0xbd85aa42	-0.06526615
68	0x3da1d88a	0.0790263
69	0x3d220623	0.039556634
70	0x3b02e10a	0.001997056
71	0xbdd6dd75	-0.10491458
72	0x3c4fcdda	0.012683356
73	0xbca197f8	-0.019725785
74	0x3e0e9ef6	0.13927826
75	0xbd8c3110	-0.068452954
76	0x3e09d9a4	0.1346193
77	0xbdce967c	-0.10087296
78	0x3d5eb803	0.054374706
79	0x3e0138c4	0.1261931
80	0xbd5d071b	-0.053961854
81	0x3c94771e	0.018123206
82	0x3de55721	0.11198259
83	0xbb85b52b	-0.004080435
84	0x3cbdb604	0.02315808
85	0x3d595f7e	0.053069584
86	0x3dca363a	0.09873624
87	0x3bd600f2	0.0065308744
88	0x3d250bce	0.04029446
89	0x3d0991bb	0.033586245
90	0xbc7c8ff6	-0.015415182
91	0xbe03ce2e	-0.1287162
92	0xbd3ed800	-0.046592712
93	0x3dcb64fe	0.09931372
94	0x3d059057	0.032608356
95	0x3d540db0	0.051770866
96	0xbd2cef41	-0.042220358
97	0x3d2b6dbb	0.041852694
98	0x3c53c5d8	0.012925588
99	0x3ce0491e	0.027378615
100	0x3ae2c3d9	0.0017300799
101	0x3dc66c19	0.09688587
102	0xbd548976	-0.051888905
103	0x3d43cdb6	0.047803603
104	0xbdc28775	-0.09498493
105	0x3cc1e57d	0.023668999
106	0x3c2d30cd	0.010570717
107	0xbd4256f6	-0.047446214
108	0x3dc320a4	0.0952771
109	0x3d4b57bc	0.049644217
110	0xbca1ba85	-0.01974226
111	0xbca09606	-0.019602787
112	0x3d8df269	0.06931002
113	0xbdc8355f	-0.09775805
114	0xbde7b8c5	-0.11314539
115	0x3dcce0f0	0.10003841
116	0xbab6d06c	-0.0013947613
117	0x3cf074b7	0.029352529
118	0xbd007ece	-0.03137093
119	0xbcbedf72	-0.023299906
120	0xbdbd3640	-0.09238863
121	0xbcbb5c92	-0.02287129
122	0xbdbcb408	-0.09214026
123	0xbdfdd833	-0.12394752
124	0x3dcbaf2e	0.09945522
125	0xbe350439	-0.17677392
126	0xbcd77a4f	-0.026303438
127	0xbd5bf817	-0.053703394
128	0x3ca3c93a	0.019993413
129	0x3e4c1b10	0.19932199
130	0x3e90291a	0.28156358
131	0xbd304137	-0.043030944
132	0x3c90103d	0.017585868
133	0x3cf2c5e0	0.02963537
134	0xbc2fc2b3	-0.010727572
135	0x3d4d8c91	0.050182883
136	0x3d8645d6	0.06556289
137	0x3d3e8366	0.04651203
138	0x3e12fe23	0.14354758
139	0x3d950cf3	0.072778605
140	0xbec0366f	-0.3754153
141	0x3d22b66b	0.03972475
142	0xbd71c5f8	-0.05902669
143	0xbecfc625	-0.4058086
144	0xbc3fe534	-0.011712361
145	0xbbd48a90	-0.0064862445
146	0xbd752e06	-0.059858344
147	0x3cf5f3c0	0.030023456
148	0xbbe8b125	-0.0071011954
149	0x3dd8a05b	0.105774604
150	0xbc12f6d7	-0.008969984
151	0x3d241f8f	0.04006916
152	0xbc35e68f	-0.011102333
153	0xbd6a246a	-0.057163633
154	0xbc1815f1	-0.009282575
155	0x3c525ab4	0.012839008
156	0x3c9c4ee0	0.01908058
157	0x3dd0b432	0.101906195
158	0x3d205706	0.039145492
159	0x3d0d5070	0.03450054
160	0x3d5219e6	0.05129423
161	0xbde5658c	-0.11201009
162	0x3d18e1ca	0.037324704
163	0x3be16148	0.006878052
164	0x3d901dc7	0.070369296
165	0x3d8fef66	0.070280835
166	0xbdc3cf7d	-0.095610596
167	0x3d607f8d	0.054809142
168	0xbb579807	-0.0032897012
169	0x3db28cfb	0.08718296
170	0x3a733ea6	0.00092790497
171	0xbce586bd	-0.02801835
172	0xbdf7c3a5	-0.12097863
173	0x3c005108	0.007831819
174	0x3d513bbd	0.05108236
175	0xbd82f6a3	-0.063946985
176	0xbb0c27ba	-0.0021385984
177	0xbd6407f5	-0.05567165
178	0x3df2f621	0.118633516
179	0x3d8e65c0	0.06953001
180	0xbbdc8d17	-0.0067306864
181	0x3e0b404d	0.13598748
182	0x3d63ac8d	0.05558448
183	0xbce2299b	-0.02760773
184	0x3d34e95c	0.04416786
185	0xbdaefbc3	-0.085441135
186	0x3d214805	0.039375324
187	0xbda7ccc8	-0.08193356
188	0xbd72fe5f	-0.05932462
189	0xbdc6f15d	-0.09714005
190	0xbd886a45	-0.06660894
191	0x3dbaf643	0.09129002
192	0x3a93ab25	0.0011266215
193	0x3d8e22f5	0.06940261
194	0xbd28fa7e	-0.041254513
195	0xbcb25d90	-0.02177313
196	0x3d19f304	0.037585273
197	0x3c8f6d87	0.017508281
198	0x3c8d664c	0.017260693
199	0x3e062a5a	0.13102093
200	0x3bf52316	0.007480989
201	0xbb8a5089	-0.0042210263
202	0x3e60c61e	0.21950576
203	0xbc8623dc	-0.016374521
204	0xbc82571d	-0.01591068
205	0x3da30207	0.07959371
206	0x3e4a92c5	0.1978255
207	0x3d88444a	0.0665365
208	0x3bf981ac	0.007614335
209	0xbb0d7068	-0.0021581892
210	0xbc9cedd3	-0.019156372
211	0xbe027227	-0.12738858
212	0xbbf82f58	-0.007574003
213	0x3db41b35	0.08794252
214	0xbd00277d	-0.03128766
215	0xbd765bca	-0.06014613
216	0xbcfd9b0f	-0.030957727
217	0xbc89442c	-0.01675614
218	0xbd468dc4	-0.048475042
219	0x3c4feb54	0.012690384
220	0xbd6fb6bc	-0.05852388
221	0x3d38de4e	0.04513388
222	0x3c6cb45c	0.014447298
223	0x3ce65131	0.028114887
224	0x3d32f18e	0.043687396
225	0x3e01dc37	0.12681662
226	0xbc8a118b	-0.016854068
227	0x3cb52d09	0.022116201
228	0xbc48a0e0	-0.012245387
229	0xbcd087ba	-0.025455344
230	0x3cbe5dfc	0.023238175
231	0x3d6e2254	0.058138207
232	0xbda5fac1	-0.08104468
233	0xbd5758ac	-0.0525748
234	0x3d3616cd	0.04445534
235	0xbd6087ba	-0.05481694
236	0xbdf0704c	-0.11740169
237	0xbca5928b	-0.020211479
238	0x3dae1c60	0.08501506
239	0xbd97cdeb	-0.074123226
240	0x3dcb8213	0.09936919
241	0xbc3faf08	-0.011699446
242	0xbde588d6	-0.1120774
243	0x3d5f72be	0.054552786
244	0x3d97403d	0.07385299
245	0xbb0314c8	-0.00200014
246	0x3c1b526e	0.009480102
247	0x3d443c8a	0.047909297
248	0x3aa997ba	0.0012938895
249	0x3d64bac4	0.055842176
250	0xbb91781c	-0.004439367
251	0x3da7096f	0.08156096
252	0xbd106ef8	-0.035262078
253	0xbdfed5ed	-0.12443147
254	0x3d135dad	0.035978008
255	0xbc942e94	-0.018088616

encoder.fc_log_var.bias f4 [4]
0	0xbda2fe65	-0.07958678
1	0xbdf22802	-0.11824037
2	0xbfaf4aa6	-1.3694656
3	0xbe9b27ee	-0.303039

decoder.fc1.weight f4 [128, 4]
0	0x3c82c067	0.015960885
1	0x3be9bfe6	0.007133472
2	0xbfaad22a	-1.3345387
3	0xbc868af8	-0.016423687
4	0xbd2198bf	-0.03945231
5	0x3d68b4a2	0.05681289
6	0x3e96bb78	0.29439902
7	0xbc7313d5	-0.014836271
8	0x3b8e19be	0.004336565
9	0xbe24657d	-0.1605434
10	0xbf8ed804	-1.1159673
11	0x3e12a315	0.14320023
12	0xbd2f71ce	-0.042833142
13	0x3d4c9bb2	0.04995317
14	0xbf741803	-0.9534914
15	0x3e02a846	0.12759504
16	0xbca4bdf1	-0.020110102
17	0x3c1cc5f6	0.009568682
18	0xbfb47fff	-1.4101561
19	0xbc96d410	-0.018411666
20	0xbd47ae74	-0.048750356
21	0xbe0bdb02	-0.13657764
22	0x3eddbb1e	0.43306822
23	0xbf54d2aa	-0.8313395
24	0xbbb5e000	-0.0055503845
25	0xbce7b0ac	-0.028282486
26	0x3f3bf921	0.73427016
27	0xbea70d1d	-0.32627192
28	0xbd7a94cb	-0.061177056
29	0x3cd2c504	0.02572871
30	0x3eebeb3f	0.46077916
31	0x3e0bf4a5	0.13667543
32	0xbc7bd3b8	-0.015370302
33	0xbc321083	-0.0108681945
34	0x3ee78a58	0.45222735
35	0x3ca7a619	0.020464944
36	0x3d4add3a	0.049527384
37	0x3ca49f29	0.020095425
38	0xbf84e2a5	-1.0381666
39	0xbd5bf4b1	-0.053700153
40	0x3cd056ac	0.025431953
41	0xbce9d027	-0.028541638
42	0xbf9826e8	-1.1886873
43	0x3c327025	0.010890995
44	0xbbcfe24e	-0.0063441163
45	0xbc442878	-0.011972539
46	0x3f0c4bce	0.5480317
47	0xbd313881	-0.043266777
48	0xbdde7f7e	-0.10864161
49	0x3d1437bb	0.03618596
50	0x3e4a1888	0.1973592
51	0x3c40b2e2	0.011761399
52	0x3c266112	0.010154979
53	0x3cc30cf2	0.023809884
54	0x3f12be91	0.5732203
55	0xbefe84e9	-0.49710777
56	0xbd77934a	-0.0604432
57	0x3e0cf47e	0.13765141
58	0x3e130900	0.14358902
59	0xbcd1778b	-0.025569698
60	0xbd44503d	-0.047928084
61	0x3da83cdc	0.08214733
62	0x3e5f5f19	0.2181362
63	0xbdb6aeaa	-0.08920033
64	0xbc8177b9	-0.015804159
65	0xbded16a2	-0.115765825
66	0xbca381d2	-0.019959364
67	0x3d709e29	0.058744583
68	0x3b831866	0.0040007113
69	0xbba2e361	-0.0049709533
70	0xbf530779	-0.8243328
71	0x3bdab114	0.0066739414
72	0xbcef62fa	-0.029222
73	0x3d29bd01	0.041440014
74	0x3f0e771f	0.55650514
75	0x3f54a2db	0.83061
76	0x3dbceaab	0.09224447
77	0xbcdefe13	-0.027220761
78	0xbe9d666d	-0.30742207
79	0xbd452ba1	-0.04813731
80	0x3d4736bc	0.048636183
81	0x3d045d26	0.032315396
82	0x3ee65d9b	0.4499329
83	0xbe9ca621	-0.30595496
84	0xbdb8b749	-0.09019334
85	0x3e906d29	0.28208283
86	0x3e562b27	0.20914899
87	0x3dd2dc26	0.10295896
88	0x3b3f2848	0.0029168297
89	0xbcc1bc22	-0.023649279
90	0xbee13e38	-0.43992782
91	0xbe5651b7	-0.20929609
92	0xbd0a9921	-0.03383744
93	0x3cb9e657	0.022692842
94	0x3e867068	0.26257634
95	0xbe123e5f	-0.14281605
96	0x3d405763	0.04695834
97	0xbd2a088b	-0.041512053
98	0x3f341e9e	0.7035922
99	0xbe8ed114	-0.2789389
100	0x3bd3f47e	0.0064683547
101	0x3cf5e1bb	0.030014863
102	0x3e8096aa	0.25114948
103	0x3f42d204	0.7610171
104	0x3d14421c	0.03619586
105	0x3da3a607	0.079906516
106	0x3ed471a4	0.4149295
107	0x3f5c005d	0.85938054
108	0xbd215407	-0.039386775
109	0x3d272cdd	0.04081427
110	0x3ee3285e	0.44366735
111	0xbe7cba5e	-0.24680468
112	0x39983560	0.00029031467
113	0xbe8e88e0	-0.27838802
114	0x3ece5d51	0.4030557
115	0x3e48537e	0.195631
116	0xbd067c34	-0.032833293
117	0x3cf9150c	0.030405544
118	0x3f61084a	0.87903273
119	0x3d173ed6	0.03692516
120	0x3c569e22	0.013099225
121	0xbbe932b6	-0.007116641
122	0x3f1d96a2	0.6155797
123	0xbc00f543	-0.007870975
124	0xbd8386fa	-0.06422229
125	0x3c9e3c91	0.01931599
126	0x3f162468	0.586493
127	0x3f1480c7	0.58009
128	0xbe1316fc	-0.14364237
129	0x3d9616a7	0.07328539
130	0x3f1b20a5	0.60596687
131	0xbf11f7d7	-0.570188
132	0x3cc13a9a	0.023587514
133	0xbcf2e835	-0.02965174
134	0xbf91706b	-1.1362432
135	0x3c24a8b0	0.010049984
136	0x3ca55d83	0.020186191
137	0xbd10c7ef	-0.03534692
138	0xbf898b2b	-1.0745596
139	0x3c09d3ae	0.008412285
140	0x39330d90	0.00017075823
141	0xbc50242e	-0.012703938
142	0xbf3a4699	-0.72763973
143	0xbcefe420	-0.029283583
144	0x3e5536d5	0.20821698
145	0xbdd56b93	-0.10420909
146	0xbe03d63a	-0.1287469
147	0xbeada735	-0.3391663
148	0xbe110acc	-0.14164275
149	0xbdabdd29	-0.08391792
150	0x3dfa0dd9	0.122096725
151	0x3cfac3b8	0.030610904
152	0xbd1ff023	-0.03904737
153	0x3c055a57	0.0081392145
154	0x3f8437cf	1.0329531
155	0x3e2e4e9e	0.17022178
156	0x3d6c30d2	0.057663746
157	0xbca8f6b8	-0.020625457
158	0x3e1cc5f0	0.15309882
159	0x3e4413e1	0.19148208
160	0x3c9eb8a1	0.019375147
161	0xbd332168	-0.04373303
162	0xbf7a99b8	-0.97890806
163	0x3cddbb5e	0.027066883
164	0x3da7b2b8	0.08188385
165	0x3cce6114	0.025192775
166	0x3d3c32a0	0.045946717
167	0xbd9e4a6e	-0.0772904
168	0xba2b35b4	-0.0006531135
169	0xbb975ced	-0.004619232
170	0x3f5f12e4	0.871382
171	0xbeec0114	-0.46094573
172	0xba7f44f8	-0.0009737755
173	0xbc3d5e11	-0.011558072
174	0x3f56653f	0.8374824
175	0xbe97a121	-0.2961512
176	0xbcc0a076	-0.023514014
177	0xbdec4ada	-0.11537714
178	0xbcee7c70	-0.02911207
179	0xbd8bb3b0	-0.06821382
180	0x3d138ae0	0.036021113
181	0x389c639c	7.457213e-05
182	0xbe70ccbe	-0.23515603
183	0x3e77bc60	0.24192953
184	0x3b822ec4	0.00397286
185	0xbaaa2ccb	-0.001298332
186	0xbfe2c5b3	-1.7716583
187	0xbc6c1695	-0.014409681
188	0xbdb0b52f	-0.08628308
189	0xbd780f88	-0.060561687
190	0x3f5595bd	0.8343161
191	0x3f1e8cc3	0.61933535
192	0xbb35fc95	-0.0027768959
193	0xbc311e10	-0.01081039
194	0x3f18404c	0.5947311
195	0x3e063611	0.13106562
196	0x3d892a1a	0.06697483
197	0xbd3b069b	-0.045660596
198	0xbf892371	-1.0713941
199	0xbd0e6fc8	-0.03477457
200	0xbafc0ce2	-0.0019229914
201	0xbcbd5192	-0.023110185
202	0x3f54b58c	0.8308952
203	0xbf08e514	-0.53474545
204	0xbd8412a2	-0.064488664
205	0x3dda888d	0.10670576
206	0xbf723ebe	-0.94626987
207	0xbe806d52	-0.25083405
208	0x3e42484e	0.18972895
209	0xbcdf86ca	-0.027285952
210	0xbebe8cba	-0.3721674
211	0xbf3522e1	-0.70756346
212	0xbc2f0d05	-0.010684256
213	0x3d7fd059	0.062454555
214	0x3f221be9	0.6332384
215	0xbd4c5142	-0.04988218
216	0xbddd11c9	-0.10794408
217	0xbdfeb06b	-0.12435993
218	0x3f576e17	0.8415236
219	0xbeeef8f4	-0.4667431
220	0xbb9554d1	-0.00455723
221	0x3d78413b	0.060609084
222	0x3e338060	0.1752944
223	0xbcdffd00	-0.02734232
224	0xbcda11ba	-0.02661978
225	0xbd058dde	-0.032606
226	0xbe1d1447	-0.15339766
227	0xbb62ad98	-0.0034588333
228	0xbb8eaf94	-0.0043544266
229	0xbc26c81f	-0.0101795485
230	0x3e0c92a2	0.13727811
231	0x3d8a3ec7	0.06750255
232	0xbd20f46c	-0.0392956
233	0xbba0954e	-0.004900611
234	0xbfdbe70e	-1.7179887
235	0xbcd11d08	-0.025526538
236	0xbd5da25c	-0.054109916
237	0x3d90c65d	0.07069085
238	0x3f82eee0	1.0229149
239	0xbb9568be	-0.0045596054
240	0xbdc4ea70	-0.09615028
241	0x3d950f09	0.07278258
242	0x3e8e91b4	0.27845538
243	0x3ec45fda	0.3835438
244	0x3e0c3e40	0.13695621
245	0xbe5c7c37	-0.21531759
246	0x3ea95bf4	0.33077967
247	0xbd21a52e	-0.03946417
248	0xbd8b4506	-0.068002746
249	0xbb73a565	-0.003717744
250	0x3dcc3495	0.09970967
251	0x3eb33ed8	0.35008883
252	0x3cce748e	0.025202062
253	0xbdb9e79a	-0.090773776
254	0x3f151c49	0.58246285
255	0x3ce0af96	0.027427476

decoder.fc1.bias f4 [128]
0	0xbe58c276	-0.21167931
1	0xbe3701fa	-0.17871848
2	0xbef10abb	-0.470785
3	0xbf7f1d5e	-0.99654186
4	0xbe67888b	-0.22610681
5	0x3e9f705e	0.31140417
6	0xbebf2afc	-0.37337482
7	0x3f1d5e09	0.6147161
8	0x3f80fbbe	1.0076826
9	0xbec28e3f	-0.3799915
10	0xbf8225f6	-1.0167835
11	0xbf2efa9a	-0.6835114
12	0xbf25a392	-0.64702713
13	0xbea79498	-0.32730556
14	0xbf224ab5	-0.63395244
15	0xbf347dee	-0.70504653
16	0xbf2ef8ee	-0.68348587
17	0xbf3350e6	-0.70045316
18	0xbf778c13	-0.9669811
19	0xbf6e26ce	-0.9302796
20	0xbeb518df	-0.35370538
21	0x3dfc26f7	0.123121195
22	0x3d792e38	0.060835093
23	0xbe8162e9	-0.25270775
24	0xbee0b85b	-0.43890652
25	0xbf2c15c3	-0.67220706
26	0xbf3e610c	-0.7436683
27	0xbf2dd1fa	-0.67898524
28	0x3f2ecd98	0.6828246
29	0x3f72f118	0.9489913
30	0x3fb1c438	1.3888006
31	0xbf3e48fb	-0.7433011
32	0x3db30af6	0.08742325
33	0xbf79774c	-0.9744766
34	0xbf6cb602	-0.9246522
35	0xbf2316b0	-0.63706493
36	0xbeabce44	-0.33555806
37	0xbf0bc635	-0.54599315
38	0xbe6a4043	-0.22876076
39	0xbef97621	-0.48722938
40	0xbf5aa9e5	-0.8541549
41	0xbeb19207	-0.34681723
42	0xbec59a2e	-0.38594192
43	0xbef81a2a	-0.48457462
44	0xbeefd805	-0.46844497
45	0xbf187272	-0.5954963
46	0xbe89b56a	-0.2689622
47	0xbf1e9f0c	-0.61961436
48	0xbf365d42	-0.7123605
49	0x3f844a7f	1.0335234
50	0xbe98f53b	-0.29874596
51	0xbf386d30	-0.72041607
52	0xbf35d2d1	-0.71024805
53	0x3f304cad	0.68867
54	0xbe6d6a95	-0.23185189
55	0xbee6a9a5	-0.45051304
56	0xbe7ea192	-0.24866322
57	0xbe54a050	-0.2076428
58	0xbe80b90b	-0.25141177
59	0x3f8d8b1b	1.1058077
60	0xbf537492	-0.8259975
61	0xbf00b7a2	-0.502802
62	0xbe403ab1	-0.18772389
63	0xbfaaa7ae	-1.3332422
64	0xbef8f199	-0.48621824
65	0xbf23f12f	-0.6403989
66	0xbf27dc17	-0.65570205
67	0xbf63daeb	-0.8900592
68	0xbf00c573	-0.50301284
69	0xbe3b1805	-0.18270881
70	0xbe580fc5	-0.21099766
71	0xbf785486	-0.9700397
72	0xbe8d6bc3	-0.27621278
73	0xbf553a54	-0.83292127
74	0x3ea7b63c	0.3275622
75	0x3eb1cd95	0.3472716
76	0xbf2137d6	-0.62975824
77	0x3f8de9a1	1.1086923
78	0xbed00acb	-0.40633234
79	0xbe5c7302	-0.21528247
80	0xbf8ece0a	-1.1156628
81	0xbe4c0a08	-0.19925702
82	0x3f86ca5d	1.0530506
83	0x3d6919a2	0.05690921
84	0x3f193b72	0.5985633
85	0xbf1fd246	-0.62430227
86	0xbf7458d0	-0.9544802
87	0xbef3255f	-0.4748945
88	0xbf641581	-0.8909531
89	0xbf36fef5	-0.71482784
90	0xbf7d9d24	-0.990679
91	0xbeac3471	-0.3363376
92	0xbeb136d9	-0.34612158
93	0x3f26adf0	0.6510916
94	0xbf111c6b	-0.5668399
95	0xbecae60d	-0.3962864
96	0xbede7d09	-0.4345477
97	0x3f631c75	0.88715297
98	0x3f55be22	0.83493245
99	0xbf37e35c	-0.718313
100	0xbf19e25c	-0.6011102
101	0xbe9de978	-0.30842185
102	0xbce49ff7	-0.027908308
103	0x3e508993	0.2036498
104	0xbec75cd2	-0.38938004
105	0xbf5a0494	-0.85163236
106	0xbf4bcf21	-0.7961293
107	0x3ed99b66	0.42501372
108	0xbf848e73	-1.0355972
109	0xbefa0056	-0.4882838
110	0xbe6c6e91	-0.23089053
111	0xbf5adbf0	-0.8549185
112	0xbefeeabb	-0.4978846
113	0xbf7acfe8	-0.9797349
114	0xbe8a9998	-0.27070308
115	0x3f4f876c	0.8106601
116	0xbeba4249	-0.36378697
117	0xbeadad01	-0.33921054
118	0x3dfb932e	0.12283932
119	0x3ea522c5	0.3225309
120	0x3e33d4cf	0.17561649
121	0xbe7c2c03	-0.24626164
122	0xbd1e83b2	-0.038699813
123	0x3f868338	1.0508795
124	0xbe9d3a1d	-0.307084
125	0xbdbf3d98	-0.0933792
126	0xbf17aff8	-0.5925288
127	0xbf76190e	-0.9613198
